…
:4149: add_dispatch_support.<locals>.wrapper (from tensorflow.python.ops.array_ops) is deprecated and will be removed in a future version. Instructions for updating: Use tf.where in 2.0, which has the same broadcast rule as np.where model . compile(loss = \"sparse_categorical_crossentropy\" , optimizer = keras . optimizers . SGD(lr = 0.01 ), metrics = [ \"accuracy\" ]) model . summary() Model: \"sequential_2\" _________________________________________________________________ Layer (type) Output Shape Param # ================================================================= flatten_2 (Flatten) (None, 3072) 0 _________________________________________________________________ dense_8 (Dense) (None, 64) 196672 _________________________________________________________________ dense_9 (Dense) (None, 64) 4160 _________________________________________________________________ dense_10 (Dense) (None, 64) 4160 _________________________________________________________________ dense_11 (Dense) (None, 10) 650 ================================================================= Total params: 205,642 Trainable params: 205,642 Non-trainable params: 0 _________________________________________________________________ history = model . fit(X_train, y_train, epochs = 5 , validation_data = (X_valid, y_valid)) Train on 45000 samples, validate on 5000 samples Epoch 1/5 45000/45000 [==============================] 
…
= 64 ,\\ kernel_size = 3 ,\\ padding = \"same\" ,\\ activation = \"relu\" ), keras . layers . Conv2D(filters = 64 ,\\ kernel_size = 3 ,\\ padding = \"same\" ,\\ activation = \"relu\" ), keras . layers . MaxPool2D(pool_size = 2 ), keras . layers . Flatten(), keras . layers . Dense( 128 ,\\ activation = \"relu\" ), keras . layers . Dense( 10 ,\\ activation = \"softmax\" ) ]) model . summary() Model: \"sequential_3\" _________________________________________________________________ Layer (type) Output Shape Param # ================================================================= conv2d (Conv2D) (None, 32, 32, 32) 896 _________________________________________________________________ conv2d_1 (Conv2D) (None, 32, 32, 32) 9248 _________________________________________________________________ max_pooling2d (MaxPooling2D) (None, 16, 16, 32) 0 _________________________________________________________________ conv2d_2 (Conv2D) (None, 16, 16, 64) 18496 _________________________________________________________________ conv2d_3 (Conv2D) (None, 16, 16, 64) 36928 _________________________________________________________________ max_pooling2d_1 (MaxPooling2 (None, 8, 8, 64) 0 _________________________________________________________________ flatten_3 (Flatten) (None, 4096) 0 _________________________________________________________________ dense_12 (Dense) (None, 128) 524416 _________________________________________________________________ dense_13 (Dense) (None, 10) 1290 ================================================================= Total params: 591,274 Trainable params: 591,274 Non-trainable params: 0 _________________________________________________________________ # Number of params in a convolutional layer = # (kernel_width * kernel_height * channels_in + 1 for bias) * channels_out ( ( 3 * 3 * 3 + 1 ) * 32 # in: 32x32x3 out: 32x32x32 Conv2D + ( 3 * 3 * 32
…
elu\" ), keras . layers . BatchNormalization(), keras . layers . Conv2D(filters = 64 , kernel_size = 3 , padding = \"same\" , activation = \"relu\" ), keras . layers . BatchNormalization(), keras . layers . MaxPool2D(pool_size = 2 ), keras . layers . Flatten(), keras . layers . Dense( 128 , activation = \"relu\" ), keras . layers . Dense( 10 , activation = \"softmax\" ) ]) model . summary() Model: \"sequential_1\" _________________________________________________________________ Layer (type) Output Shape Param # ================================================================= conv2d (Conv2D) (None, 32, 32, 32) 896 _________________________________________________________________ batch_normalization (BatchNo (None, 32, 32, 32) 128 _________________________________________________________________ conv2d_1 (Conv2D) (None, 32, 32, 32) 9248 _________________________________________________________________ batch_normalization_1 (Batch (None, 32, 32, 32) 128 _________________________________________________________________ max_pooling2d (MaxPooling2D) (None, 16, 16, 32) 0 _________________________________________________________________ conv2d_2 (Conv2D) (None, 16, 16, 64) 18496 _________________________________________________________________ batch_normalization_2 (Batch (None, 16, 16, 64) 256 _________________________________________________________________ conv2d_3 (Conv2D) (None, 16, 16, 64) 36928 _________________________________________________________________ batch_normalization_3 (Batch (None, 16, 16, 64) 256 _________________________________________________________________ max_pooling2d_1 (MaxPooling2 (None, 8, 8, 64) 0 _________________________________________________________________ flatten_1 (Flatten) (None, 4096) 0 _________________________________________________________________ dense_4 (Dense) (None, 128) 524416 _________________________________________________________________ dense_5 (Dense) (None, 10) 1290 ================================================================= Total params: 592,042 Trainable params: 591,658 Non-trainable params: 384 _________________________________________________________________ model . compile(loss = \"sparse_categorical_crossentropy\" , optimizer = keras . optimizers . SGD(lr = 0.01 ), metrics = [ \"accuracy\" ]) history = model . fit(X_train, y_train, epochs = 5 , v
…
